svm_model.pth (torch, 1703 bytes, 2 tensors)

weight f4 [5, 10]
000000 a6 67 ec bd 68 e9 2f 3e ae d5 5c 3e f6 5a 1f 3e
       -0.11543207 0.17178881 0.21565887 0.15562043
000010 3a 6f c0 bd 27 8c 99 3e a8 df 02 3e 86 73 d2 bd
       -0.09396215 0.2998974 0.1278063 -0.102759406
000020 f0 09 0d 3e e4 a0 a1 be 24 b7 df bd b0 4b d3 bc
       0.13773322 -0.31568062 -0.10923603 -0.025792927
000030 48 3e 03 3e f6 2b 9a be 50 ef 5c be 16 ae 31 3e
       0.12816727 -0.30111665 -0.21575665 0.17351565
000040 c0 b7 64 3d b7 5b 8c 3e 40 c5 0c 3e 79 47 8c be
       0.0558393 0.27413723 0.1374712 -0.2739828
000050 b6 d5 39 3e a9 28 a1 3e 90 64 ac 3c 04 da 35 3e
       0.1814793 0.31476334 0.021044046 0.17758948
000060 39 bb 83 3e 5e 91 49 3e 6c 0f d9 3d 56 98 59 3e
       0.25728777 0.1968436 0.105986446 0.21249518
000070 64 47 28 3e 78 84 14 3d 20 0c c5 3c ab cb 82 be
       0.16433483 0.036259145 0.024053633 -0.2554601
000080 d2 2e 2f be 00 1d 05 bc 46 11 71 be 50 dc ce 3d
       -0.17107704 -0.00812459 -0.23541746 0.10100615
000090 45 04 0e be d2 15 28 3e 78 8b 54 bd 28 f5 9e be
       -0.13868816 0.16414574 -0.05189082 -0.31046414
0000a0 1a 83 2d be 30 9a 3a 3e 8a 86 6e 3e ad e6 88 3e
       -0.16944543 0.1822288 0.2329351 0.26738492
0000b0 09 d0 87 3e 06 50 5e 3e e0 46 c3 bc d8 87 89 be
       0.26525906 0.21710214 -0.023837507 -0.26861453
0000c0 5a 5b 33 be f8 57 46 be
       -0.17515317 -0.19369495

bias f4 [5]
000000 84 6f fc bd ce 52 fd bd a2 8d 44 3e 80 3b 55 3d
       -0.123259574 -0.12369309 0.19194654 0.052058697
000010 f6 64 77 3e
       0.24159607
