Train_svm_model.pth (torch, 11943 bytes, 1 tensors)

weight f4 [1, 2577]
00000000: 080b 5e3c a00b 713b 4849 b3bb e05d 423c
00000010: 1466 a0bc 7081 6f3c 1c14 423c 30f0 8d3a
00000020: ec29 033c 18a8 8a3c f9f2 9dbc 2f49 3abc
00000030: 6081 9f3a 4a50 ddbb eb31 97bc b0af 813c
00000040: c368 99bc a013 483a 446a 2e3c 5e8e 73bc
00000050: 231b 8dbc 70fd e1ba c618 d2bb c9d3 91bc
00000060: 083f 84bb 6e43 92bc 9172 98bc 98c0 7dbc
00000070: c05b 17ba 0a23 90bc c5f0 86bc a05e 7bbb
00000080: 0905 02bc f042 a0bb f0c5 643c a67e 96bb
00000090: 9e8d 963c 8401 133c ecd2 a43b dc9d 06bc
000000a0: 22ae 2ebc 3245 03bc 700b e43a a0c2 683a
000000b0: 6814 06bb 8626 4fbc c24a a3bb dcc4 aa3b
000000c0: d435 6e3c 20ef 9f3a 4076 d03b d865 6b3b
000000d0: 5c1a 52bc 1a21 2a3c 40de db3a 24b0 cc3b
000000e0: d463 e5bb 502d 1bbb d411 283c 98e5 273b
000000f0: e041 843c a020 1a3a eaeb 243c bad5 69bc
00000100: a037 7f3b babc 60bc a8b1 8cbb 781a 0abb
00000110: 6c6b f9bb 6e0d 123c d5b1 24bc 4379 9ebc
00000120: 3c98 8c3b 280b f43b cfd4 37bc b646 923c
00000130: ee11 943c cdc0 a0bc 104a 9abb 0200 acbb
00000140: 240d 533c 9eea 833c 5490 76bc 0028 80b9
00000150: 8858 80bc 62ef bebb 0420 fcbb d1cf 80bc
00000160: d445 353c 2050 6d3c ae17 2fbc 1c52 5dbc
00000170: a0ea 17ba b237 9e3c 4c6a b43b c01a c33b
00000180: dca0 5c3c e89d 4c3b 51e1 2cbc cc10 9abc
00000190: 6667 48bc c047 f9b9 344f 9a3c 5170 02bc
000001a0: f1e8 81bc 3e46 803c d03c 44bb b334 89bc
000001b0: 1013 a33b 5296 9c3c 704f 67bb eaf7 0e3c
000001c0: 0a99 40bc aeab 61bc d87b 7f3c c866 5b3c
000001d0: c9b1 90bc d0e8 9d3a 70f0 faba 7038 7ebb
000001e0: 6d60 24bc 5874 0dbb b022 033c 507b 5d3c
000001f0: a802 663c c445 c23b e081 813b f873 2a3c
00000200: 382e 713c 6050 d3ba 80de 4ebc 4ad4 1a3c
00000210: 8094 d4b9 6c2c bbbb dcef 6e3c 48b2 983c
00000220: 06e4 083c 7856 d73b b8c7 703b 0c6e 8d3c
00000230: 5d65 4abc 7484 5f3c fffe 1abc 6f96 91bc
00000240: 4004 343b e2de 2c3c 2878 9dbc ecc9 7e3c
00000250: 6bef 28bc 0a87 093c ba7d ffbb c866 67bc
00000260: 5024 62bb 1a14 89bb 746a d63b 525f 83bc
00000270: 0a12 16bc d846 61bb 28a7 803c a8c1 183c
00000280: a8d3 693c d8a3 7e3b d2a9 82bc 00e1 fd39
00000290: 205b be3b 4019 c43a 5272 8cbb 3624 f9bb
000002a0: 7cf3 813c f4a7 c33b 10d1 803a 5883 783c
000002b0: 2045 8dba e835 6dbb c004 c9b9 d4db fe3b
000002c0: 453d 7dbc e096 1fbb a02d 69ba e852 b2bb
000002d0: b4db 813b 1ca2 b43b d409 d5bb 2c8f 813c
000002e0: b032 96bb fa4e 973c 70ae 7dbc d863 b73b
000002f0: 2808 ad3b 32ec 8cbc e061 913b 4e5d 08bc
00000300: 00af 4e3b 8ca4 063c d8be 9e3c 8403 f93b
00000310: fc30 7bbc 0085 ba39 93ec 14bc 8635 1bbc
00000320: b80a 6d3c c10f 11bc d4dd 593c a0ff 37ba
00000330: e0b0 953c 6827 47bb f870 3e3b c0c4 a139
00000340: 5dbd 3dbc 9a6d 863c 14be 6c3c d6b0 e3bb
00000350: 7c55 953c 0a63 873c 9060 823b dafe 80bc
00000360: 4030 02ba e40f a73b 8865 abbb 6078 71bc
00000370: fcb6 443c 0034 b2b9 2a31 82bc a040 543b
00000380: 8011 653b d8a1 c2bb 5888 943b 390e 1fbc
00000390: 60f4 243c 1ef2 ebbb 90c0 59bb ec0e a2bb
000003a0: bf8d 52bc eca7 733c 5c66 4b3c a047 4e3c
000003b0: 19a2 80bc 4496 553c ee54 14bc be1e 273c
000003c0: 38cc 1dbb 8de8 25bc 1813 46bc a10b 91bc
000003d0: 6cee 823c 40a5 33ba dc4e 923c 706d 5b3c
000003e0: 5b93 0dbc a698 1a3c b4fc 72bc 4c23 5c3c
000003f0: 9314 00bc c437 ebbb 0230 823c ccc3 2c3c
0.013552435 0.003678061 -0.0054713823 0.011863202 -0.019579925 0.014618263 0.011845615 0.0010829028
0.0080056 0.016925856 -0.019280897 -0.011369987 0.0012169294 -0.006753956 -0.01845642 0.015830845
-0.018726712 0.0007632319 0.010645453 -0.014865486 -0.017224854 -0.0017241668 -0.0064116446 -0.017801182
-0.004035834 -0.017854419 -0.018609317 -0.015487812 -0.00057738647 -0.017594833 -0.01647223 -0.0038355961
-0.007935771 -0.004890792 0.013963208 -0.0045927344 0.018378075 0.008972529 0.0050300267 -0.008216348
-0.010661634 -0.008012103 0.0017398428 0.0008879099 -0.002045894 -0.012643462 -0.004983277 0.0052114557
0.014539201 0.0012202002 0.0063617527 0.0035918858 -0.012823667 0.010383869 0.001677461 0.0062465835
-0.007000426 -0.0023678131 0.010258157 0.0025619026 0.016144693 0.00058794953 0.010066012 -0.014272148
0.0038943067 -0.013716871 -0.004293639 -0.0021072906 -0.0076116826 0.008914335 -0.010052164 -0.019344931
0.0042906087 0.007447619 -0.011220171 0.017855983 0.018074956 -0.019623185 -0.004708536 -0.0052490244
0.012881551 0.016103085 -0.015049059 -0.00024443865 -0.015667215 -0.0058268765 -0.0076942462 -0.015724095
0.011064012 0.014484435 -0.010686798 -0.013508346 -0.0005795155 0.019313667 0.0055058356 0.0059541166
0.013466086 0.003122205 -0.0105517665 -0.018806837 -0.012231683 -0.0004754644 0.018836595 -0.007961349
-0.015858145 0.015658494 -0.0029943474 -0.016748762 0.0049766377 0.019114647 -0.0035295151 0.0087260995
-0.011755237 -0.013773842 0.0155934915 0.013391204 -0.0176629 0.0012047533 -0.0019145142 -0.0038790964
-0.010032755 -0.002158424 0.008003876 0.0135181695 0.014038719 0.005928727 0.00395225 0.010403626
0.014720492 -0.0016121976 -0.01262629 0.009450028 -0.00040546432 -0.0057120826 0.014583554 0.018639699
0.008355146 0.006571587 0.0036740135 0.017264389 -0.012353268 0.013642419 -0.00946021 -0.017771928
0.0027468354 0.010551186 -0.019222334 0.015551072 -0.010310988 0.008394012 -0.00779697 -0.014123626
-0.0034506507 -0.0041833045 0.006543452 -0.016036663 -0.009159574 -0.0034374502 0.015704706 0.009323515
0.014271654 0.0038854983 -0.015950117 0.00048423558 0.005809203 0.0014961138 -0.004286089 -0.0076031936
0.015863173 0.0059709493 0.000982793 0.015168034 -0.0010778047 -0.003619546 -0.00038341247 0.0077776704
-0.015456502 -0.0024351403 -0.0008895043 -0.005442012 0.003962958 0.005512489 -0.0065014157 0.01581534
-0.004583679 0.018470276 -0.015483484 0.005596619 0.0052805133 -0.01720247 0.0044367164 -0.008323027
0.0031537414 0.008217942 0.01937811 0.007599296 -0.015331503 0.00035575777 -0.009089607 -0.00947321
0.014467888 -0.008853854 0.013297517 -0.0007018987 0.018272817 -0.0030388478 0.0029059034 0.00030854903
-0.011580792 0.016409684 0.014449615 -0.0069485707 0.018229239 0.016526718 0.0039787963 -0.015746523
-0.0004966296 0.00509833 -0.0052306093 -0.014738172 0.0120065175 -0.0003398955 -0.015892584 0.0032387152
0.0034953058 -0.0059397034 0.004532855 -0.009707981 0.010068029 -0.0072004935 -0.0033226348 -0.0049456265
-0.012851178 0.014871579 0.012414541 0.012590319 -0.015702294 0.013036314 -0.009053452 0.010200201
-0.0024078023 -0.010126245 -0.012089513 -0.01770574 0.015982829 -0.0006852932 0.017859869 0.013392791
-0.008641089 0.009435808 -0.014830757 0.01343615 -0.007817405 -0.0071782786 0.015892033 0.0105447285
