Train_svm_model.pth (torch, 11943 bytes, 1 tensors)

weight f4 [1, 2577]
000000 4a 0f be bb 50 bf a7 3b de c0 9d bb 04 b3 e4 3b
       -0.0058001624 0.005119242 -0.0048142513 0.006979348
000010 60 08 7f 3c 1c 30 5c 3c 68 28 90 3b cc 5a 8f 3c
       0.015565962 0.013439205 0.004399348 0.01749935
000020 a0 ba c5 bb 5d bf 0c bc da 2b 92 3c ec 6f 75 3c
       -0.0060342103 -0.008590546 0.017843176 0.014980298
000030 02 ef 18 3c 04 79 83 bb 64 44 a4 3b 4c 80 0e 3c
       0.009334328 -0.004012229 0.0050130356 0.008697581
000040 88 8d 79 3b a0 45 4a 3c d0 e8 db 3a 94 ca 85 3c
       0.0038078744 0.012345701 0.0016777758 0.016331948
000050 bb f9 21 bc 7c 89 4a bc ac ce 4d 3c 0f 70 0b bc
       -0.009886201 -0.01236188 0.012561481 -0.008510604
000060 94 01 7b bc b4 f5 3b 3c 1a 11 97 3c 58 96 07 bc
       -0.0153202005 0.011472154 0.018440772 -0.008275591
000070 28 6b 05 3c fc 40 79 bc c8 a2 66 3c a8 5e d9 bb
       0.008143224 -0.015213247 0.014076896 -0.0066335984
000080 40 58 b5 3a 58 91 15 3c 7c ee ba 3b d2 f5 97 bc
       0.0013835505 0.009128891 0.005704699 -0.018549833
000090 10 45 87 3c b7 39 04 bc 80 96 80 3c 3d 83 5a bc
       0.016512424 -0.008070401 0.015696764 -0.013336954
0000a0 10 93 5f bb 40 3d b9 39 50 fa 0c 3b 78 33 54 3c
       -0.0034114756 0.00035331585 0.0021511503 0.012951724
0000b0 ba 8e 7f bc cc 6b 9e 3b 78 3b 44 3b 34 64 8c 3b
       -0.0155979935 0.0048346277 0.0029942673 0.004284406
0000c0 70 ae e1 3b 6f 99 9a bc 80 2a 7c ba d0 f4 b1 ba
       0.0068872496 -0.018871991 -0.000961937 -0.0013576988
0000d0 f4 b7 60 3c b0 d5 05 3c e6 18 6b bc 62 e8 8d bc
       0.013715733 0.008168623 -0.014349198 -0.017322723
0000e0 26 ec 81 3c df fc 9b bc 4f 30 95 bc f2 a0 11 3c
       0.015859675 -0.019041477 -0.018211512 0.00888847
0000f0 80 a0 44 3c c6 9e 67 bc ef a5 00 bc 2f 3c 9a bc
       0.012001157 -0.014136976 -0.007852062 -0.018827526
000100 d0 0e 17 3b d2 70 2c 3c d6 a7 98 bb 0e 6e 8c 3c
       0.00230496 0.010524945 -0.0046586795 0.017142322
000110 88 fc 73 bc 40 36 2d ba a2 13 43 bc 48 02 bf 3b
       -0.014891751 -0.000660751 -0.011906536 0.0058291294
000120 6c d5 d7 3b 51 a0 25 bc e8 1f 29 3c 6d 53 63 bc
       0.006586721 -0.010109023 0.010322548 -0.013874871
000130 68 8e 61 bc e0 dd 0a bb e2 e6 c4 bb 70 db 8a 3c
       -0.013766862 -0.0021189377 -0.0060089687 0.01695034
000140 00 ea 1f 39 d0 d8 30 3b 80 c4 fd 3b a2 65 58 bc
       0.00015250593 0.00269847 0.007744372 -0.013207825
000150 44 2b a7 3b 69 a3 2c bc ee 22 9e bc 1d 72 68 bc
       0.005101593 -0.010537007 -0.019303765 -0.014187363
000160 00 4a 8e bc 40 96 b3 b9 40 6d 7d 3c 80 21 64 b9
       -0.01736927 -0.00034253486 0.015467942 -0.00021756254
000170 8a 3f 24 3c 0e a9 86 bc 8e 8d 4d bc 2a bb 88 bc
       0.0100249145 -0.016438033 -0.012545956 -0.01669081
000180 36 ce 2f 3c 84 f2 32 3c 18 aa 1b 3b 78 e5 1d 3c
       0.010730317 0.010922078 0.0023752507 0.009637229
000190 64 40 9a bc 18 95 6a bc 98 41 6b 3c da bd 83 3c
       -0.018829532 -0.014317773 0.0143589005 0.01608174
0001a0 ba a6 8f bb 60 06 91 bc 64 05 3e 3c 9c fe 45 3c
       -0.004383889 -0.017703235 0.011597965 0.012084629
0001b0 88 c3 f8 3b eb 34 34 bc 0b ef 81 bc 73 ad 1c bc
       0.0075916685 -0.010998945 -0.015861055 -0.009562838
0001c0 08 30 df 3b 8e 83 c9 bb 14 38 6b 3c 94 51 62 bc
       0.0068111457 -0.0061497157 0.014356632 -0.013813395
0001d0 a4 06 34 3c 90 00 9d bc c0 3a b6 b9 f0 f2 1d bb
       0.010987911 -0.019165307 -0.00034757517 -0.00241011
0001e0 ba 5e 97 bb e0 30 44 3a 9b db 2b bc 28 6b 6f 3c
       -0.0046194466 0.00074840896 -0.01048937 0.01461295
0001f0 0c f9 1e 3c 2b 49 49 bc c0 47 56 ba 28 8a 87 3c
       0.009702932 -0.012285511 -0.0008174144 0.01654537
000200 00 2b 72 3c e4 7d 9d 3c ec a9 b8 bb ec 16 87 bc
       0.01478076 0.019225068 -0.0056354906 -0.016490422
000210 c4 87 c8 bb 00 e8 b8 39 99 2a 5c bc 40 79 3a 3a
       -0.0061197 0.00035268068 -0.01343789 0.00071134046
000220 30 0a a6 ba 30 75 9e bc 80 43 a5 3a 40 17 5c bc
       -0.0012667831 -0.019342989 0.0012608618 -0.013433278
000230 c2 1c 19 3c 60 cf 44 ba 1a 02 4a bc 7c 70 4c 3c
       0.009345235 -0.0007507708 -0.012329603 0.01247799
000240 9c 96 f2 bb 72 59 43 bc 1c 5a 35 bc d8 54 2c 3b
       -0.007403208 -0.011923181 -0.011068847 0.0026295688
000250 e6 bb 9e 3c 9d 2a 79 bc ca 27 11 bc 50 3c 9d bb
       0.019376706 -0.015207914 -0.008859584 -0.0047984496
000260 35 6b 8d bc 0c ae a3 3b 46 af 12 bc 88 a8 89 3b
       -0.017263034 0.0049951132 -0.008952921 0.0042009987
000270 71 3e 09 bc f0 23 56 3c 32 49 99 3c 80 a3 81 3c
       -0.008376704 0.013070092 0.01871166 0.015825033
000280 b0 be 72 bc 10 5c 4a 3b 01 fc 8d bc f8 74 5b 3c
       -0.014815971 0.0030877627 -0.017332079 0.013394587
000290 5c 9f 1d bc c8 c3 3e bb de e1 14 bc 00 62 39 38
       -0.009620514 -0.0029108394 -0.009087054 4.4198707e-05
0002a0 81 89 0d bc 72 fb c4 bb 00 c0 72 3c d8 46 72 3c
       -0.0086387405 -0.00601142 0.014816284 0.014787398
0002b0 3c 52 79 3c 64 93 05 3c 1c 2c be bb 95 0b 90 bc
       0.01521736 0.008152816 -0.005803598 -0.017583648
0002c0 24 c0 e5 bb cc 42 02 3c 80 f6 1d 39 f0 90 5d 3c
       -0.0070114303 0.007950496 0.00015064515 0.013523325
0002d0 08 e3 ce bb 00 ea 00 b9 f0 f6 af bb 57 64 3e bc
       -0.0063136853 -0.00012294203 -0.0053700134 -0.011620603
0002e0 6c 3d a1 3c 60 ab 68 3c 6b ca 8f bc 40 ed 31 ba
       0.019682609 0.014201015 -0.017552575 -0.0006787367
0002f0 00 3a 99 ba e0 12 94 3a 9a 56 86 bb d6 64 89 bc
       -0.0011690259 0.0011297129 -0.004099679 -0.016771715
000300 6e a6 cd bb 18 c3 6c 3c 90 e3 93 3a 8b 19 16 bc
       -0.0062759435 0.014450811 0.0011283029 -0.009161363
000310 94 4d 40 3c 5c e9 56 3c a4 cc f5 3b 1a 2f 9a 3c
       0.011737246 0.013117161 0.0075012017 0.018821288
000320 bc c2 03 bc 00 08 2a 37 36 b3 8e bc 6c 89 98 bc
       -0.008042034 1.0134652e-05 -0.017419439 -0.018620215
000330 3c da 9b bc 80 68 3d bc 58 68 c0 3b 68 6b f6 3b
       -0.01902496 -0.011560559 0.0058718137 0.007520128
000340 30 a2 ee ba e6 85 2e 3c c7 46 80 bc 63 8b 3c bc
       -0.0018206295 0.010652041 -0.01565875 -0.011507842
000350 82 0b 9f 3c d6 83 b4 bb 20 b5 8f 3a 73 8b 53 bc
       0.019414667 -0.00550888 0.0010964014 -0.012911665
000360 90 0b 89 ba 4e 36 1d 3c 6b a0 96 bc ba 1e 89 3c
       -0.0010455716 0.009595467 -0.01838704 0.016738284
000370 a0 c0 77 3a 60 d9 7d ba 20 3e 29 bb 84 18 94 3c
       0.00094510056 -0.00096835755 -0.0025824383 0.018078096
000380 1a 38 e5 bb 30 a1 d4 ba 24 0c 91 bb 8b a6 1c bc
       -0.006995213 -0.0016222354 -0.004426496 -0.009561191
000390 f4 21 24 3c 80 f0 0f 3a 7d 3c 9d bc ac 1e 99 bc
       0.010017861 0.00054908544 -0.019193882 -0.018691383
0003a0 48 19 30 3c 3c 1f 80 bc 80 b5 5c 3c ba 2c 28 bc
       0.010748215 -0.015639894 0.013471007 -0.01026457
0003b0 94 9a 83 3c 94 d4 dc 3b 40 38 7a 3a d0 1e c1 3a
       0.01606492 0.0067392085 0.0009545125 0.0014733914
0003c0 1b aa 85 bc f8 32 50 bc b0 53 60 bb e0 dd 4a 3c
       -0.016316464 -0.012707464 -0.003422957 0.012382001
0003d0 bc b7 2f 3c a4 22 6b bc f6 4b 4f bc ba 5d 4c bc
       0.010724958 -0.014351521 -0.012652388 -0.012473518
0003e0 c4 14 89 bc fa 0b 9b bc 26 b9 60 bc 26 48 07 3c
       -0.016733535 -0.01892661 -0.013716018 0.008256948
0003f0 88 dc 6a 3c 30 56 3e bc 40 7f 3b bb 3e e7 61 bc
       0.014334805 -0.011617228 -0.0028609782 -0.013788043
