mat_svm_model/7_Train_svm_model_acc__.pth (torch, 1639 bytes, 1 tensors)

fully.weight f4 [1, 143]
00000000: fda7 8ebd 80ad 4d3d 89d4 10bd af42 abbd
00000010: 74c4 9d3d c2b0 6ebd a807 fb3c 401d d6ba
00000020: fcfe 95bd 98ed e1bc ba73 95bd 88b9 49bc
00000030: 1423 463d 5c6c 95bd c0a3 a6ba 68d7 62bd
00000040: 3ee8 fbbc 3c81 90bd b413 783d 30ee 7f3d
00000050: e2e6 5bbd e833 8c3c 84b4 843d 029d 81bd
00000060: d05b b23b 02d7 73bd 75d0 67bd 20ad 65bb
00000070: 00b5 1f3a 2292 a43d fca5 3f3d 8610 8dbd
00000080: dce3 8abc c300 abbd 7998 57bd b079 63bc
00000090: 5a56 943d e492 bcbc fc83 d43c a0a8 53bd
000000a0: 565a 923d c2ab 953d 0d94 a6bd 54af 85bd
000000b0: 8506 aabd 3b0a 1bbd 40c4 063d 0254 153d
000000c0: 505e 9ebd 28e6 663c 65d1 0dbd 00b7 bb3c
000000d0: 906d 8f3b b8ca 8c3d a1f5 a4bd 2039 283b
000000e0: 6a36 1fbd bc8d 8d3c 50fa 913c 2df0 1fbd
000000f0: 92c4 893d 58c2 35bc e22b 0a3d a84d 3bbc
00000100: 00c1 8d3c e60d c9bc 0cfe 203d d032 4dbc
00000110: f0e9 803d ba07 1abd 5909 2dbd 6d98 73bd
00000120: 1209 233d a0f0 153c d2aa a23d 7856 2f3c
00000130: 405e 803a 08ef 6e3d c43f 7d3d f64b 73bd
00000140: f02c 863c 6a22 fabc ecc6 573d 7431 663d
00000150: 7c11 633d 104b a73b f842 7e3d 4497 2b3d
00000160: 74db f33c 344b b03c 7862 db3c ddb5 9bbd
00000170: 94ca d73c 95a9 aabd 547a 753d 0016 dd3c
00000180: 40cd 1bbb 3266 76bd 3619 9a3d 94eb fd3c
00000190: 87ce 19bd 88e8 5f3c 9e66 0b3d ea46 953d
000001a0: 902e 24bc 6817 0a3c d459 773d 02e5 823d
000001b0: 1215 e4bc 9491 543d 503b ab3b 5a52 873d
000001c0: fe53 1a3d 80f9 1dba f87e 87bd 70c3 05bc
000001d0: 6481 6bbd 4009 283c c0e2 943d a20b 853d
000001e0: 4041 87bd 03b3 21bd 18f6 74bc 5081 9abd
000001f0: 14fb 88bc 91d0 99bd 1261 953d 341b b9bc
00000200: c8db 773d e442 b83c 6846 24bc 9052 1c3d
00000210: 685f 913d 0c47 3c3d bc19 893d b9e5 6abd
00000220: 3e66 05bd a02a 203c bae7 61bd f0db 71bc
00000230: e8fa 2b3d 2cf1 3fbd 08c1 e03c
-0.06965635 0.05021429 -0.03535894 -0.08362328 0.07703486 -0.058274038 0.0306433 -0.0016335621
-0.07324025 -0.027579114 -0.07297464 -0.0123123005 0.048373297 -0.072960585 -0.0012713596 -0.05538121
-0.03075039 -0.070558995 0.060565665 0.062483013 -0.053686984 0.017114595 0.06479743 -0.06328775
0.005443074 -0.05953122 -0.056595284 -0.0035045817 0.000609234 0.08035685 0.046789154 -0.06887917
-0.016954355 -0.08349755 -0.052635644 -0.013883993 0.07243033 -0.023019262 0.025941841 -0.051674485
0.071461365 0.07308151 -0.08133707 -0.06527582 -0.08302025 -0.037851553 0.032902002 0.03645707
-0.077328324 0.014092959 -0.034623522 0.02291441 0.0043770745 0.06874603 -0.080546625 0.0025668815
-0.038870253 0.017279498 0.017819554 -0.03904741 0.06726946 -0.011093698 0.033733256 -0.011432089
0.017303944 -0.02454276 0.039304778 -0.012524322 0.0629462 -0.037605025 -0.042245243 -0.059471536
0.039803572 0.009151608 0.07942738 0.010701768 0.0009793714 0.058333427 0.06182839 -0.059398614
0.01637885 -0.030533988 0.05267994 0.056199506 0.055436596 0.0051053837 0.062075585 0.041892305
0.02976773 0.021520235 0.026780352 -0.07603047 0.026341714 -0.083331265 0.059931114 0.02698803
-0.0023773462 -0.060156055 0.0752434 0.030996121 -0.037550475 0.01366628 0.03403341 0.072889164
-0.010020867 0.008428432 0.0603884 0.06391336 -0.027842078 0.051896647 0.0052255765 0.06607504
0.037677757 -0.0006026253 -0.06616014 -0.008164272 -0.057496443 0.010256112 0.07269812 0.064963594
-0.06604242 -0.03947736 -0.014951251 -0.07544196 -0.016721286 -0.07510484 0.07293905 -0.02259598
0.060512334 0.022492833 -0.010026552 0.038164675 0.070982754 0.045966193 0.066943616 -0.057347987
-0.03256821 0.009775788 -0.055152632 -0.01476191 0.04198733 -0.04686086 0.027435794
