mat_svm_model/98_Train_svm_model_acc__.pth (torch, 1511 bytes, 1 tensors)

fully.weight f4 [1, 107]
0.05075772 -0.059851807 0.036606163 -0.092581555 0.03140074 0.029131815 -0.02125448 -0.06388448
0.077723145 0.05615136 -0.070120014 -0.04006979 0.035335377 0.010824382 -0.009948388 -0.052390926
0.069260314 -0.083896644 0.018639699 0.03479387 0.08991742 -0.035638034 -0.04464873 -0.09408579
-0.008480467 0.051478088 0.015188634 -0.073167354 0.019347847 0.017981254 -0.08017077 -0.089505464
-0.060457934 0.060760424 -0.05148694 0.049139485 0.009753406 -0.031309046 0.04153663 0.0717188
0.024902105 0.035305858 -0.032476567 0.04182723 -0.0045878068 0.017229669 -0.08928458 0.026506796
-0.010371245 -0.08159808 0.061366156 0.077625334 0.08346179 -0.06952399 -0.035649754 -0.05837234
0.07632682 0.09151542 -0.063859165 -0.02515468 0.019487284 -0.006418757 -0.08674246 0.08999798
0.045347825 -0.0013737679 -0.0065841153 0.07118878 -0.091020696 -0.018032536 0.08137889 0.07167593
-0.09522244 0.09176193 0.07289876 -0.014313795 -0.034346715 -0.07611868 -0.019074112 -0.038534127
-0.07505223 0.04766777 0.0053585544 -0.06936747 -0.06381815 -0.035173036 -0.0253755 0.0028924942
0.055690914 0.06863549 -0.051297687 -0.029370837 -0.009708509 0.07023156 -0.05879153 0.08050978
0.0005120486 -0.05796092 0.06376216 0.0040846765 -0.07823056 -0.06604031 0.03060776 -0.012383468
0.08732979 -0.041956227 -0.009405881
00000000: 54e7 4f3d 2b27 75bd 58f0 153d 669b bdbd
00000010: 109e 003d d8a5 ee3c e01d aebc ded5 82bd
00000020: 502d 9f3d f8fe 653d 159b 8fbd 3820 24bd
00000030: d4bb 103d c058 313c 90fe 22bc de97 56bd
00000040: 5ad8 8d3d 01d2 abbd 48b2 983c 0484 0e3d
00000050: a026 b83d 30f9 11bd 96e1 36bd 0db0 c0bd
00000060: a8f1 0abc b0da 523d c0d9 783c c4d8 95bd
00000070: 607f 9e3c 6c4d 933c 9330 a4bd a44e b7bd
00000080: bda2 77bd ecdf 783d f8e3 52bd 7c46 493d
00000090: c0cc 1f3c ea3d 00bd 5022 2a3d 4ee1 923d
000000a0: 80ff cb3c e09c 103d 2606 05bd 0853 2b3d
000000b0: 5055 96bb 3c25 8d3c d5da b6bd c824 d93c
000000c0: 28ec 29bc e51c a7bd 145b 7b3d 08fa 9e3d
000000d0: 04ee aa3d 9862 8ebd 7a05 12bd d617 6fbd
000000e0: 3c51 9c3d 706c bb3d 98c8 82bd 3011 cebc
000000f0: cca3 9f3c 7054 d2bb 08a6 b1bd dc50 b83d
00000100: a4be 393d 0010 b4ba 90bf d7bb 6ccb 913d
00000110: 0f69 babd f8b8 93bc faa9 a63d d4ca 923d
00000120: fc03 c3bd aeed bb3d f24b 953d 6884 6abc
00000130: 24af 0cbd 1ce4 9bbd 5041 9cbc f6d5 1dbd
00000140: fcb4 99bd 483f 433d d096 af3b 8810 8ebd
00000150: 17b3 82bd 9a11 10bd 48e0 cfbc 0090 3d3b
00000160: 281c 643d c490 8c3d 861d 52bd 1c9b f0bc
00000170: 7010 1fbc 90d5 8f3d 63cf 70bd 50e2 a43d
00000180: 003b 063a 6e68 6dbd bc95 823d c0d8 853b
00000190: 5837 a0bd 2440 87bd 20bd fa3c 08e4 4abc
000001a0: f6d9 b23d 4bda 2bbd 201b 1abc
